main/src/AI_model/model_param/param_epoch200.pth (torch, 4251 bytes, 10 tensors)

encoder.encoder.weight_ih_l0 f4 [8, 4]
00000000: e5bc c63e c57b 6cbe f538 21bf 6e1b a2bb
00000010: 87f3 c2be eb30 84be de92 313f 1966 41bd
00000020: d2cf efbd 65bd 6ebf d285 643f 7e7d 0b3e
00000030: 7525 b3be 6593 00bf 9c5e 7b3f 67b9 c53d
00000040: b1ba 5d3e 506b ac3e 5c5a 99be fd40 61bd
00000050: 464e e9bb dd17 113c 7011 e73d c1a8 0f3d
00000060: 7cd0 82be 93b7 8abe 02c0 f43e edd6 2ebb
00000070: 78d0 ca3e 5806 c2be c7dc bdbc 60fc 663d
0.3881599 -0.2309409 -0.62977535 -0.0049471175 -0.38076422 -0.2581857 0.69364727 -0.04721651
-0.117095605 -0.93257743 0.89266694 0.1362209 -0.34989515 -0.50224906 0.9819124 0.09654503
0.21653248 0.33675623 -0.2995175 -0.05499362 -0.0071199266 0.008855787 0.11282623 0.035073046
-0.25549686 -0.2709318 0.4780274 -0.0026678399 0.39612174 -0.37895465 -0.023176564 0.056393027

encoder.encoder.weight_hh_l0 f4 [8, 2]
00000000: 4644 583e de74 8a3f 61a1 a53e 5b84 93be
00000010: 1bd8 133f 9f8d 65be 167d 443e 9113 a9bf
00000020: f1fb 86bd c092 c63e 0c85 9abd 265d 62be
00000030: 9088 a33e b544 5bbe bc46 9d3e 7a3b 88be
0.21119794 1.0816915 0.32349685 -0.28811917 0.57751626 -0.22417305 0.19188341 -1.3209096
-0.06591023 0.38783836 -0.07544908 -0.22105846 0.31940126 -0.21412928 0.3071803 -0.26607877

encoder.encoder.bias_ih_l0 f4 [8]
00000000: b822 2b3f 3dc6 803f 2220 9ebf 3bea 32bf
00000010: 452c 52bf 6b0f 283c e579 663f 0b75 243f
0.6684985 1.0060498 -1.2353556 -0.6988866 -0.820988 0.010257582 0.90029746 0.64241093

encoder.encoder.bias_hh_l0 f4 [8]
00000000: e7f0 723f 7b45 bf3f 7290 dabe 67c2 85be
00000010: ce7d 95bf 2833 4b3f 472d 6dbc f092 723f
0.9489884 1.4943079 -0.42688328 -0.2612488 -1.1679018 0.79374933 -0.014476127 0.9475546

decoder.decoder.weight_ih_l0 f4 [16, 2]
00000000: 28ff 17c0 ec92 2940 a4ab 2540 738d 823f
00000010: 7106 553f efad 093e cb3d 1ebf 12df 893f
00000020: 5a7c 99bf 0dec 14c0 8c92 1dbf fcfc 6e3f
00000030: adb3 003f 07c8 98be 5d3e 0b40 220b 5ebf
00000040: 6d84 fabf f1d7 75bf 1b7d 2a3f 7c0f 2d40
00000050: 583f cbbf 4413 1cc0 1df6 8f3f f0d3 0d40
00000060: 3349 19c0 a53b 2e40 f1ce 9ebf 84b0 4240
00000070: e92b f4be 6440 ac3e d1a8 5bc0 9e4d 0d40
-2.3749485 2.6495924 2.588601 1.0199417 0.83212954 0.13445257 -0.6181304 1.0771201
-1.1991074 -2.3269074 -0.6155174 0.93354774 0.50274163 -0.2984011 2.1756814 -0.8673574
-1.9571663 -0.96032625 0.66597146 2.70407 -1.5878706 -2.4386759 1.1246983 2.2160606
-2.3950927 2.7223904 -1.2406904 3.0420237 -0.4768975 0.33642876 -3.4321787 2.2078624

decoder.decoder.weight_hh_l0 f4 [16, 4]
00000000: b78e 0a3f f099 fe3f 8e40 4d3f 67b1 27c0
00000010: f70d 1a40 7b87 ee3f b118 9c3f 90ee 4ec0
00000020: 6782 1b40 1c87 6940 da95 82bf 55e3 5cbf
00000030: 97d7 3c40 a9f0 97bf 4e99 a040 98f2 42be
00000040: 59d8 783b be1d 853e 1a1e c8be 700b b8bc
00000050: 836b 10c0 a486 d1be 4037 90c0 0644 b6bd
00000060: d1de 763e 08da a4bf d68c d2bf 1a0e a23f
00000070: 4bb7 0140 787c ed3d ab41 f93f 6638 293e
00000080: e352 c8be 0be5 8f3c ea9f d2bc 0d38 bf3b
00000090: 5891 a4bb 167f dabd 2f70 b1bd 91f7 f0be
000000a0: 8416 f7be cb06 093e 6767 40bf 30c8 673e
000000b0: 65fd 5dbe 5f65 07bf 1714 47bb 0880 acbd
000000c0: d6a8 813b 5a37 3040 7b85 1c3f 7006 4fc0
000000d0: 605c fd3c b889 e73f 7db7 a73f 7fa2 31c0
000000e0: 5d75 e7bd 59f6 4a40 7af4 b9bf fc85 28c0
000000f0: eb0c 1d3e 4c38 1d40 bf05 b53e 7520 4cc0
0.54124016 1.9890728 0.8017663 -2.6202028 2.4071023 1.8635095 1.2195035 -3.2333107
2.4298341 3.6488714 -1.0201981 -0.8628438 2.9506586 -1.1870319 5.018714 -0.19037855
0.003797075 0.25999254 -0.39085466 -0.022466391 -2.256562 -0.40923035 -4.5067444 -0.08899693
0.24108435 -1.2879038 -1.644923 1.2660553 2.0268123 0.11596006 1.9473165 0.1652542
-0.39125738 0.01756527 -0.025711019 0.005835539 -0.005022209 -0.10668771 -0.086639754 -0.47063878
-0.48259366 0.13381498 -0.7515778 0.22634959 -0.21678694 -0.52889055 -0.0030376965 -0.084228575
0.0039568944 2.7533784 0.61141175 -3.234768 0.030927837 1.8088903 1.3102871 -2.775543
-0.11301682 3.1712859 -1.4527733 -2.6331778 0.15336959 2.456561 0.35355946 -3.189481

decoder.decoder.bias_ih_l0 f4 [16]
00000000: c136 7040 bfc2 b73f 4f45 2d3d 48ef 923f
00000010: 6c13 c13c c3e1 45bf f35c 523e af50 d43e
00000020: eb7b 81be dd7f 0abf be4f 183e e360 25bf
00000030: 3e10 3040 517f 6b40 b854 29bc 7686 da3f
3.753342 1.4356307 0.042302426 1.1479273 0.023568831 -0.7729761 0.2054327 0.41467807
-0.25289854 -0.54101354 0.14874169 -0.6460096 2.7509913 3.6796458 -0.01033514 1.7072284

decoder.decoder.bias_hh_l0 f4 [16]
00000000: 01e6 6740 cfa7 873f 7e68 943d 4e42 d63f
00000010: c328 70be a929 bfbe 7216 96bd d6be 113f
00000020: ad44 7bbe b313 383e 0218 4a3e f910 64be
00000030: 6c24 5940 c742 4840 1f08 123f 0f56 0540
3.6234133 1.0598086 0.07246493 1.6738985 -0.2345305 -0.37336472 -0.073285 0.5693182
-0.24537916 0.17976265 0.19735721 -0.222721 3.392848 3.1290758 0.5704364 2.0833776

decoder.out_layer.weight f4 [4, 4]
00000000: 521f 73c0 7ead 923f 1a1e 94c0 6632 c53f
00000010: e009 b3c0 9ab6 0540 f22a 823f 4cc4 e43f
00000020: 1612 f63e 11ea 6340 deec 54c0 0b3a 8240
00000030: a8d5 10c0 556a 8140 f48b 1640 4321 7540
-3.7987866 1.1459196 -4.6286745 1.5406005 -5.5949554 2.08927 1.0169356 1.7872405
0.48060673 3.5611613 -3.3269572 4.0695853 -2.2630405 4.04423 2.352292 3.8301551

decoder.out_layer.bias f4 [4]
00000000: f1bf 993c 6e32 8dbe 56bb 50bd ffaa a4be
0.018768283 -0.27577537 -0.050959907 -0.3216171
