main/src/AI_model/model_param/param_epoch400.pth (torch, 4251 bytes, 10 tensors)

encoder.encoder.weight_ih_l0 f4 [8, 4]
000000 2e 3f c4 3e be 6a 91 be 6e f4 0d bf e8 49 63 3d
       0.38329452 -0.2840175 -0.55451095 0.055490404
000010 e6 18 be be 2c c1 99 be c3 00 32 3f fd cc 42 bd
       -0.3712837 -0.3003019 0.6953241 -0.047558773
000020 81 6b fd bc 49 dd 4c bf 12 98 35 3f 4e 35 94 3d
       -0.03093505 -0.80025154 0.70935166 0.072367296
000030 d1 9f ce be fd 64 ea be ac a4 61 3f c1 21 4a 3d
       -0.40356305 -0.45780173 0.88141894 0.049348596
000040 f5 e0 41 3e 9f ae a6 3e 18 2b 9a be e7 09 3d bc
       0.1893347 0.325551 -0.30111003 -0.011538005
000050 3d a7 3b 3c 13 75 77 3c e2 a2 c9 3d 06 5f 0e 3c
       0.011453447 0.015103596 0.098455206 0.008689648
000060 77 5f 76 be c3 6a 54 be 1e 2a e0 3e c4 b9 06 bd
       -0.24059854 -0.20743851 0.43782133 -0.032892004
000070 6b b9 bc 3e bf 59 b1 be 67 ef ab bd ac 18 7c 3d
       0.36860213 -0.34638783 -0.08395272 0.061546966

encoder.encoder.weight_hh_l0 f4 [8, 2]
000000 bc 83 08 3f 96 a4 81 3f 09 22 c1 3e 83 ac 1d bd
       0.5332601 1.0128353 0.3772128 -0.038494598
000010 09 3d 91 bc ea 0a 59 3c 70 4b 62 3e 2a f5 61 bf
       -0.0177293 0.013247231 0.2209909 -0.88264716
000020 62 01 35 3d 1d 5b f7 3e 41 05 dc bd 5f 79 9a be
       0.044190772 0.483117 -0.107431896 -0.30170724
000030 91 8f 78 3e fa a7 b5 be e6 dd bd 3e 84 e8 9b be
       0.24273516 -0.35479718 0.37083358 -0.30450833

encoder.encoder.bias_ih_l0 f4 [8]
000000 e0 52 18 3f e1 33 81 3f 63 15 ac bf 59 9d 40 bf
       0.5950146 1.0093957 -1.3444027 -0.75240093
000010 16 89 57 bf 42 ba a6 3b 7c 67 5e 3f 6d 19 2c 3f
       -0.8419355 0.0050881216 0.86876655 0.67226297

encoder.encoder.bias_hh_l0 f4 [8]
000000 0e 21 60 3f 1f b3 bf 3f 8a 32 09 bf 18 28 a1 be
       0.8755044 1.4976538 -0.5359274 -0.31475902
000010 04 2c 98 bf 6b e0 49 3f ac 6c 3c bd 53 37 7a 3f
       -1.1888433 0.7885806 -0.046002075 0.9774067

decoder.decoder.weight_ih_l0 f4 [16, 2]
000000 7e 85 02 c0 77 11 33 40 f1 9d 9c 40 55 ac b5 3e
       -2.0393977 2.797941 4.89428 0.3548304
000010 71 d2 1f 40 77 29 ee 3f 2f a7 23 3c 26 ac 4e 3f
       2.4972193 1.8606404 0.00998859 0.8073143
000020 0f 8b 9b bf 63 5c ec bf f2 0b 46 bf f9 bd ad 3f
       -1.2151812 -1.8465694 -0.7736198 1.35736
000030 02 73 b6 be de e3 b1 3e 60 fb 1f 40 90 9f 92 bf
       -0.3563462 0.3474416 2.4997177 -1.1454945
000040 51 fc ea bf f1 82 6e bf 53 9a 67 3f 23 86 43 40
       -1.8358251 -0.9316855 0.90469855 3.055062
000050 22 20 e7 bf b6 e2 2a c0 e3 98 9f 3f fc 0a 2e 40
       -1.8056681 -2.6700873 1.2468532 2.7194204
000060 ba ec 27 40 ba db 94 be f4 d0 07 c0 3e 8a 86 40
       2.6238236 -0.29073888 -2.1221285 4.2043753
000070 43 65 ab bf c0 8f 91 be a2 8b 0f c0 17 4c 26 3f
       -1.3390278 -0.28429985 -2.2428975 0.64959854

decoder.decoder.weight_hh_l0 f4 [16, 4]
000000 b6 ea 9a 3e 8b 1a 2a 40 1d 89 39 3f e3 06 3f c0
       0.30257195 2.65787 0.72474843 -2.9847953
000010 a9 83 92 40 b0 b1 16 40 bb 5a bf be e9 05 e3 bf
       4.578572 2.3545952 -0.3737391 -1.7736179
000020 d6 3d d6 3f 7d d3 d3 3f 20 43 65 c0 2b 14 d1 3e
       1.6737621 1.6548916 -3.582222 0.408357
000030 f1 00 dc 3f e7 b1 98 bf 77 b9 d5 40 ec 20 e2 be
       1.7187787 -1.1929291 6.6788898 -0.44165742
000040 27 36 a0 bd 36 fc f5 3d b6 cb b7 3c 3f 61 6c bd
       -0.07822829 0.12010996 0.022436004 -0.05770993
000050 7a 02 1f c0 6f 36 01 bf 09 0a 91 c0 41 95 97 be
       -2.4845262 -0.50473684 -4.532475 -0.2960606
000060 01 98 aa be f6 29 8e bf de 0d 3c be 1a c5 b1 3f
       -0.33319095 -1.1106555 -0.18364665 1.3888276
000070 be 23 24 40 ce 13 5c 3d 59 87 d5 3f cc 08 d3 3e
       2.5646815 0.053729825 1.668193 0.4121765
000080 51 ad a5 be 66 97 e7 3c 87 01 16 bd e6 15 90 ba
       -0.32358792 0.028270435 -0.03662255 -0.0010992854
000090 65 96 a5 3d 9b 22 a6 bd 92 b0 26 bf f5 f9 ef be
       0.08085326 -0.08112069 -0.65113175 -0.4687039
0000a0 42 8c ec be c6 92 d1 3d 48 99 3e bf 37 24 57 3e
       -0.46200758 0.10233073 -0.7445264 0.21009909
0000b0 32 a9 79 be cb 29 01 bf 55 01 0e 3e 39 7d 9d bd
       -0.24380949 -0.50454396 0.13867696 -0.076899
0000c0 c5 94 45 c0 6a fc 9a 40 ca e7 ba bf 69 2a c0 bf
       -3.0872052 4.8433123 -1.4601986 -1.5012943
0000d0 dd 75 0d be 75 1e 0b 40 c3 1b 93 3f f9 e8 32 c0
       -0.13814493 2.173734 1.1492847 -2.7954695
0000e0 76 c7 73 3f 81 4e 4f 40 ab e3 f4 be d6 eb 99 c0
       0.9522623 3.2391665 -0.47829947 -4.8100386
0000f0 54 53 26 c0 85 2f 98 40 06 57 38 c0 f7 96 c0 bf
       -2.598836 4.7558007 -2.8803115 -1.5046071

decoder.decoder.bias_ih_l0 f4 [16]
000000 4a e0 a3 40 ee be e7 3f 76 41 c8 3e c3 68 9a 3f
       5.121129 1.8105142 0.39112443 1.2063221
000010 2d f0 49 be fb 35 73 bf 04 78 db be 9c 98 df 3e
       -0.19720526 -0.9500424 -0.42865002 0.4367112
000020 b4 1b 57 be 84 64 e6 be d5 f3 1b 3e ef 1d 3e bf
       -0.21006662 -0.44998562 0.15229733 -0.74264425
000030 6d 64 fa 3f 99 c8 ba 40 59 08 d4 be c6 d6 a7 3f
       1.9561898 5.836987 -0.4141262 1.3112419

decoder.decoder.bias_hh_l0 f4 [16]
000000 f3 b7 9f 40 fe a3 b7 3f ea b2 d7 3e c9 bb dd 3f
       4.9912047 1.4346921 0.42128688 1.7322932
000010 97 1d e9 be 4b e9 0c bf c3 15 35 bf b1 62 17 3f
       -0.45530388 -0.55043477 -0.7073633 0.59134966
000020 96 68 4f be 00 a5 8a 3e 19 bc 4d 3e 9c 82 a3 be
       -0.2025474 0.2707901 0.20091285 -0.31935585
000030 3b 46 26 40 56 2a a9 40 2b a5 2a 3e 72 fc d7 3f
       2.5980365 5.286418 0.16664569 1.6873915

decoder.out_layer.weight f4 [4, 4]
000000 c3 94 8b c0 96 e9 8b 3f fc 76 b3 c0 4e 49 ce 3f
       -4.3619094 1.093066 -5.6082745 1.6116121
000010 8c 5c dc c0 c2 fc 21 40 00 02 b3 3f aa c1 02 40
       -6.886297 2.531052 1.3984985 2.0430703
000020 56 e7 2d 3f 40 e5 77 40 0f 06 6f c0 c9 ed 9d 40
       0.67931116 3.8733673 -3.7347448 4.9352765
000030 26 6d 3d c0 83 04 99 40 25 5a 4c 40 91 3d 97 40
       -2.959787 4.7818007 3.193002 4.7262654

decoder.out_layer.bias f4 [4]
000000 37 fa 5c bd f2 e9 f1 be ba 7c 60 be 2e ff 16 bf
       -0.05394956 -0.472488 -0.2192258 -0.58983123
