main/src/AI_model/model_param/param_epoch100.pth (torch, 4251 bytes, 10 tensors)

encoder.encoder.weight_ih_l0 f4 [8, 4]
000000 0b 1f 8b 3e ad 5d 89 be da b5 9a be 6a 8d 96 be
       0.2717212 -0.2682928 -0.30216867 -0.29404765
000010 11 37 ad bd da 73 8c bd 54 11 d1 3e 09 50 69 be
       -0.08457769 -0.068580344 0.40833533 -0.22784437
000020 fc 54 07 bf 78 04 79 bf 5b 9c 8c 3f 12 55 7f 3e
       -0.5286405 -0.97272444 1.0985216 0.24934795
000030 e4 8b cd be 1b 73 f4 be ec 0b 8b 3f cb a7 63 3e
       -0.4014579 -0.47744069 1.0863013 0.22231977
000040 ea 87 a8 3e f2 09 ba 3e 8d 43 92 be 97 12 71 bd
       0.32916194 0.36335713 -0.28567162 -0.05885562
000050 3d d9 8d bc dc f1 6c bc 0d 24 2a 3e 15 ae 69 3d
       -0.017315501 -0.014461961 0.16615315 0.057050783
000060 7f b3 c8 be 2b d0 a2 be c7 6f 21 3f 5b 78 e3 bc
       -0.39199445 -0.31799445 0.63061184 -0.02776735
000070 13 a4 47 3e 37 5f cd be f4 7d 8f 3e 30 2f 9e 3c
       0.19496183 -0.40111706 0.28025782 0.01930961

encoder.encoder.weight_hh_l0 f4 [8, 2]
000000 d6 07 db 3e e8 8e 89 3f b0 4a 39 3e 67 e0 16 bf
       0.42779416 1.0746737 0.18094897 -0.5893616
000010 f4 6c 84 3f 24 8d a1 bd b2 60 a9 3e a2 74 ec bf
       1.034575 -0.078882486 0.33081585 -1.8473094
000020 ec 2c 22 bc c8 87 b9 be fb 61 b0 3c 3b a1 c0 bd
       -0.0098984055 -0.36236405 0.021531096 -0.09405752
000030 6d 3c 04 3f 9b 1b 15 3e 16 a8 d5 bc 8f dd 51 be
       0.516547 0.14561312 -0.026081126 -0.20494674

encoder.encoder.bias_ih_l0 f4 [8]
000000 25 f4 4c 3f fc 6b 6c 3f f5 fb 8e bf 29 92 01 bf
       0.80060035 0.9235227 -1.1170641 -0.5061365
000010 fd 0d 39 bf 9b d4 dc 3c e6 79 69 3f 31 94 12 3f
       -0.7228697 0.026956847 0.9120163 0.5725737

encoder.encoder.bias_hh_l0 f4 [8]
000000 fd 60 8a 3f 6a b5 b4 3f d0 ff 9d be 07 49 8c bd
       1.0810848 1.4117863 -0.30859232 -0.06849866
000010 db ee 88 bf a4 79 4f 3f 86 e9 34 bb 16 b2 60 3f
       -1.0697893 0.81044984 -0.002760501 0.8777174

decoder.decoder.weight_ih_l0 f4 [16, 2]
000000 f4 90 d1 bf 3e 59 da 3f 9b c6 81 bf 1f 9c f8 3f
       -1.6372361 1.7058485 -1.0138735 1.9422644
000010 17 69 91 3f 5f d2 da be 99 93 db bf c8 b4 d5 3f
       1.1360196 -0.42738625 -1.7154418 1.6695795
000020 89 23 42 bf 10 aa d5 bf 72 c9 11 be 7c 69 f3 3e
       -0.7583547 -1.6692524 -0.14237002 0.47541416
000030 67 5e b8 3f aa b7 0c c0 ac 37 d0 3f 33 2e 1c bf
       1.4403809 -2.19871 1.626699 -0.61007994
000040 dc 7e 06 c0 3f b7 6d bf d4 56 ec 3e a5 7a 18 40
       -2.101493 -0.92857736 0.46159995 2.3824856
000050 92 63 b6 bf 45 e3 0d c0 a9 98 50 3f 96 b8 d5 3f
       -1.4249136 -2.2169964 0.8148294 1.6696956
000060 fd ef ec bf 39 6c f1 3f b2 f1 3e bf ab 4e f5 3f
       -1.8510739 1.8861152 -0.7458755 1.9164633
000070 39 3c 90 bf 0e d3 eb 3e f6 7b 0d c0 23 44 bc 3f
       -1.1268378 0.4605946 -2.210691 1.4708294

decoder.decoder.weight_hh_l0 f4 [16, 4]
000000 f0 a6 50 3f 8c ef 93 3f 44 4c 26 3f 7e 8d b7 bf
       0.81504726 1.1557479 0.6496012 -1.4340055
000010 54 40 c1 3f ce 57 2e 3f b7 75 84 3f 42 97 26 c0
       1.5097756 0.6810273 1.0348424 -2.602982
000020 74 d7 ff be 54 25 5d 40 5f d4 2b 3e b4 ca 2b c0
       -0.49969065 3.4554033 0.16780232 -2.684247
000030 0b b1 b3 3f a8 65 3a bf 8c dd e7 3f 16 29 c3 be
       1.4038404 -0.72811365 1.8114486 -0.38117284
000040 da 88 38 3e ba 82 d1 3e 3c 73 9c be b8 db fc bd
       0.18020955 0.4092005 -0.30556667 -0.123465955
000050 8e 6a e0 bf 83 1a 60 bd 23 e1 7e c0 c5 2d ef 3d
       -1.7532518 -0.054712784 -3.9824913 0.11678652
000060 d6 2c b3 bd 12 09 0c bf d6 af a5 bf a4 90 66 bd
       -0.08748786 -0.5470134 -1.2944286 -0.056290284
000070 be f5 9c 3f 9c fa b2 3d 70 28 ed 3f 64 90 87 bd
       1.2262495 0.08739206 1.8527966 -0.06619337
000080 21 bd da be a3 4c 25 bb 7e b9 60 3d ae 16 bd bb
       -0.4272242 -0.002522268 0.0548644 -0.005770526
000090 82 82 2a be 53 e2 28 be fa 3e f4 bd fd 67 2e bf
       -0.16651347 -0.16492586 -0.11926074 -0.68127424
0000a0 f6 de f9 be e5 ff f7 3d 82 f1 55 bf e6 32 4c 3e
       -0.48802918 0.12109355 -0.83571637 0.19941291
0000b0 0a 02 9f be b3 6c f1 be b2 78 c8 be 2f 91 fd bd
       -0.31056243 -0.47153243 -0.39154583 -0.12381207
0000c0 80 90 03 3f be f7 c7 3f d8 83 2b 3f 54 6c f2 bf
       0.51392365 1.562248 0.6699805 -1.8939309
0000d0 a6 91 45 be fb be 91 3f 96 c9 3e 3f 37 79 f1 bf
       -0.19293842 1.1386408 0.74526346 -1.8865117
0000e0 3d f2 1a bf 71 d4 dd 3f d3 7c 34 3d b0 0d f4 bf
       -0.60525876 1.7330457 0.044064354 -1.9066677
0000f0 14 c0 43 3f ee 2f 1e 3f ea 22 5c 3f cb da b5 bf
       0.7646496 0.61791885 0.85990775 -1.4207395

decoder.decoder.bias_ih_l0 f4 [16]
000000 39 67 14 40 d1 9b d9 3f 96 53 1c bd 6e 4a 9a 3f
       2.3188002 1.7000676 -0.03816565 1.2053964
000010 83 c8 86 3d 4a ce 02 bf bf dd 61 3e 22 57 8d 3e
       0.06581213 -0.5109602 0.22057246 0.2760554
000020 13 8d 95 be 24 d9 1d bf 91 2d 06 3e 93 78 08 bf
       -0.29209194 -0.61659455 0.1310332 -0.5330898
000030 8c d9 bf 3f 51 f3 0b 40 e9 8e 79 3f c5 f2 ab 3f
       1.4988265 2.1867259 0.9748369 1.3433462

decoder.decoder.bias_hh_l0 f4 [16]
000000 79 16 0c 40 13 81 a9 3f d2 21 03 bc 74 9d dd 3f
       2.1888716 1.3242515 -0.008003669 1.7313676
000010 f9 e6 44 be 70 0a e4 bd 65 2b 6e bd 1d 84 dc 3e
       -0.19228734 -0.11134803 -0.058146853 0.43069544
000020 67 b3 91 be 38 5b d5 3d d5 f5 37 3e e1 df e0 bd
       -0.28457186 0.10417789 0.17964871 -0.109802015
000030 e5 00 09 40 63 6d d1 3f 22 1e c7 3f 65 18 dc 3f
       2.1406796 1.6361507 1.5556071 1.7194945

decoder.out_layer.weight f4 [4, 4]
000000 f3 bf 2e c0 5c 85 4d 3f 43 8e 76 c0 47 67 94 3f
       -2.7304657 0.80281615 -3.852433 1.1594018
000010 d1 b9 69 c0 fd b7 a6 3f fa 1b 04 3e d4 ee a0 3f
       -3.6519663 1.3024899 0.12901297 1.2572885
000020 b9 b6 d3 3e 9c 69 2f 40 3d e4 31 c0 9d 31 4c 40
       0.41350344 2.740821 -2.7795556 3.1905282
000030 9e 14 ad bf 9a 0c 34 40 e5 83 b2 3f 16 4c 35 40
       -1.3521917 2.8132691 1.3946501 2.832769

decoder.out_layer.bias f4 [4]
000000 d3 24 f2 3d a4 64 d2 3c 9c c0 ec bd e2 3c 0b be
       0.1182343 0.025682755 -0.11560175 -0.13597444
