main/src/AI_model/model_param/param_epoch300.pth (torch, 4251 bytes, 10 tensors)

encoder.encoder.weight_ih_l0 f4 [8, 4]
000000 da 39 ca 3e 0f 02 8e be 3f 71 1b bf e4 df 70 3d
       0.39497262 -0.27735946 -0.60719675 0.05880727
000010 57 79 b3 be 52 ae 9d be 73 da 36 3f 1f 43 58 bd
       -0.35053512 -0.30797058 0.7142708 -0.052798387
000020 77 89 13 bd ce 06 5f bf 1b 0f 4a 3f a1 b2 a7 3d
       -0.03601977 -0.8711976 0.789293 0.08188368
000030 eb 74 c2 be c1 96 f8 be 03 51 6e 3f 46 ed 7d 3d
       -0.37979826 -0.48552516 0.93092364 0.06199386
000040 38 8e 3d 3e 7d 38 a9 3e 90 67 99 be 89 48 db bc
       0.18511283 0.3305091 -0.29961824 -0.026767986
000050 b4 9f 72 3b 60 1e 83 3c 3b 67 d4 3d fa d9 85 3c
       0.003702146 0.016005695 0.10371252 0.01633929
000060 f9 a2 76 be ea 0d 69 be ff b5 e9 3e ba c9 dd bc
       -0.24085607 -0.22759214 0.45646665 -0.02707373
000070 c9 20 ce 3e 99 7f b9 be 2a f2 8e bd ca c4 71 3d
       0.40259388 -0.36230162 -0.06979783 0.059025563

encoder.encoder.weight_hh_l0 f4 [8, 2]
000000 11 19 bb 3e aa 65 84 3f a7 f2 ba 3e fd 62 f4 bd
       0.36542562 1.0343525 0.36513254 -0.11932943
000010 e0 fd 63 3e 57 24 e3 bd b8 0b 4f 3e 73 76 87 bf
       0.22264814 -0.11090916 0.20219314 -1.0583023
000020 44 39 8f bb 2a 0d ec 3e ab 25 c1 bd 38 e8 8c be
       -0.0043708403 0.46103793 -0.09431013 -0.2752092
000030 08 15 8a 3e bf 6f a2 be 03 f5 bb 3e cf be 8f be
       0.2696917 -0.3172588 0.36710367 -0.28075263

encoder.encoder.bias_ih_l0 f4 [8]
000000 ff 61 1e 3f 21 d6 83 3f 0e 8f a4 bf e1 c9 38 bf
       0.6186828 1.0299722 -1.2856157 -0.7218304
000010 f4 84 53 bf 2c c5 95 3a 57 75 61 3f 7f 47 29 3f
       -0.82624745 0.001142656 0.8806967 0.6612472

encoder.encoder.bias_hh_l0 f4 [8]
000000 2e 30 66 3f 5f 55 c2 3f d2 4b f4 be be 81 91 be
       0.89917266 1.5182303 -0.47714096 -0.28419298
000010 3b 2a 96 bf c0 dd 48 3f 96 92 0b bd 65 65 77 3f
       -1.1731638 0.78463364 -0.034075342 0.9663909

decoder.decoder.weight_ih_l0 f4 [16, 2]
000000 c2 e7 0d c0 3e 70 2f 40 49 ba 88 40 ce d8 29 3f
       -2.2172704 2.7412257 4.27274 0.6634644
000010 ef 2f b3 3f 94 50 96 3f a9 d1 67 be 74 31 67 3f
       1.3999003 1.174334 -0.22638573 0.90309834
000020 0c d3 a0 bf ba dd 04 c0 e0 eb 3f bf 28 18 97 3f
       -1.2564406 -2.076033 -0.7496929 1.1804247
000030 bc 4f e4 3d 09 36 31 3e 4f 8d 1a 40 10 41 86 bf
       0.111480206 0.17305769 2.4148748 -1.0488605
000040 6c ce ef bf 18 23 6f bf b9 e5 4b 3f f3 d8 3b 40
       -1.873487 -0.93412924 0.79647404 2.9351165
000050 30 7b de bf 57 21 26 c0 57 b1 99 3f ab 4e 21 40
       -1.7381344 -2.595785 1.2007245 2.5204265
000060 7f 23 ca bf fb b2 22 40 33 f2 ff bf 1c c6 80 40
       -1.5792083 2.542174 -1.9995788 4.0241833
000070 c3 f8 8c bf a0 20 29 be 51 3c 1e c0 46 40 63 3f
       -1.1013416 -0.16516352 -2.4724314 0.8876995

decoder.decoder.weight_hh_l0 f4 [16, 4]
000000 e6 bc ae 3e 2a 68 22 40 5c 3c 3d 3f 1c e7 3b c0
       0.34128493 2.5376077 0.73920226 -2.9359808
000010 63 c1 71 40 7b e1 11 40 ca 3b c2 3e b7 00 17 c0
       3.7774284 2.2793872 0.3793624 -2.3594186
000020 53 0d 0d 40 bc 04 20 40 58 0a 25 c0 fe df 92 3e
       2.2039382 2.500289 -2.5787563 0.28686517
000030 e6 37 0a 40 00 46 97 bf 59 e6 c0 40 34 59 ae be
       2.1596618 -1.1818237 6.0281186 -0.34052432
000040 60 9e a6 bd a1 3f e5 3d 3a ba 8c bd 31 b5 41 bb
       -0.081356764 0.11193777 -0.068714574 -0.0029557461
000050 ff 23 1d c0 98 2a fc be d0 5b 8e c0 88 11 57 be
       -2.455322 -0.49251246 -4.4487076 -0.21002781
000060 ac 9d 25 bd d7 d1 97 bf 2f 9d 82 bf af bb b5 3f
       -0.04043357 -1.1860913 -1.0204219 1.4197901
000070 75 4b 1a 40 13 fb 84 3d 68 df ec 3f 39 74 a9 3e
       2.4108555 0.06493201 1.8505678 0.33096483
000080 fb 66 b0 be d1 d5 c2 3c 51 a3 c1 bc 3e fe 8f ba
       -0.34453568 0.023783596 -0.023637446 -0.0010985804
000090 e2 14 4d 3d 16 7b 83 bd d1 18 f8 be be 74 f3 be
       0.050068744 -0.06419961 -0.48456433 -0.47550005
0000a0 89 20 e0 be ba 41 df 3d 18 2f 34 bf cd 71 58 3e
       -0.43774822 0.10901208 -0.7038436 0.21137162
0000b0 59 2e 3f be 74 38 05 bf 65 5d 09 3d 71 d0 9e bd
       -0.18670024 -0.52039266 0.033536334 -0.07754601
0000c0 6b b5 03 bf 7f 6e 6e 40 b7 d7 b6 3e 18 eb 5e c0
       -0.51448697 3.7254941 0.35711452 -3.483099
0000d0 a8 3e e9 bd 53 58 08 40 65 11 96 3f 37 d6 33 c0
       -0.11388904 2.130391 1.1724058 -2.8099496
0000e0 06 61 5d 3f e1 15 4c 40 ff 64 6b bf 79 2d 98 c0
       0.8647617 3.1888354 -0.9195098 -4.755551
0000f0 71 5b 14 c0 d5 4d 96 40 b9 69 16 c0 0e 56 cf bf
       -2.3180811 4.697001 -2.3502028 -1.6198137

decoder.decoder.bias_ih_l0 f4 [16]
000000 90 6f 94 40 05 dc d9 3f 11 cd 64 3e 12 25 9b 3f
       4.6386185 1.702027 0.22343852 1.2120688
000010 0f d5 9f bd 45 9f 63 bf c4 3a 61 be 72 0e dc 3e
       -0.078043096 -0.889149 -0.21995074 0.4297977
000020 57 90 66 be c5 0b f4 be 24 53 1e 3e 9c 2c 36 bf
       -0.22515999 -0.4766523 0.15461403 -0.7116182
000030 4d b0 64 40 cf e8 a9 40 3e 80 83 be 3c 15 98 3f
       3.5732605 5.309669 -0.2568378 1.188148

decoder.decoder.bias_hh_l0 f4 [16]
000000 39 47 90 40 15 c1 a9 3f fe d7 81 3e 18 78 de 3f
       4.508694 1.3262049 0.253601 1.73804
000010 b5 1a ac be f8 a4 fa be 72 51 ff be 98 9d 15 3f
       -0.33614126 -0.48953986 -0.49866825 0.58443594
000020 39 dd 5e be 87 fb 79 3e 68 1b 50 3e 3d a0 93 be
       -0.21764077 0.24412356 0.20322955 -0.2883319
000030 0b e2 86 40 8c 4a 98 40 98 da a5 3e e8 3a c8 3f
       4.215093 4.7591 0.32393336 1.5642977

decoder.out_layer.weight f4 [4, 4]
000000 a2 ec 79 c0 c1 ed 8b 3f 01 9c a2 c0 1c 29 c5 3f
       -3.905068 1.0931932 -5.0815434 1.540317
000010 e2 66 c8 c0 5f 36 18 40 31 9d 8f 3f 64 f4 f8 3f
       -6.262559 2.3783185 1.1219846 1.9449582
000020 57 ad 4c 3f 99 26 71 40 7d a5 5f c0 fe 4e 92 40
       0.79951996 3.7679808 -3.4944756 4.5721426
000030 0b 02 26 c0 17 76 91 40 99 b7 2a 40 6f b0 8c 40
       -2.5938747 4.5456653 2.667456 4.3965373

decoder.out_layer.bias f4 [4]
000000 4f ba 37 3c 81 c2 cb be 1c 44 10 be bf 0f 02 bf
       0.011213853 -0.39796832 -0.14088482 -0.50805277
