main/src/AI_model/model_param/param_epoch500.pth (torch, 4251 bytes, 10 tensors)

encoder.encoder.weight_ih_l0 f4 [8, 4]
0	0x3eb820ea	0.3596261
1	0xbe8d9aae	-0.27657074
2	0xbf016adc	-0.5055368
3	0x3d24f76c	0.040275022
4	0xbebd191b	-0.36933216
5	0xbe961e30	-0.29319906
6	0x3f2d79f6	0.6776422
7	0xbd111e0e	-0.035429053
8	0xbccb9fd9	-0.024856495
9	0xbf3a0d79	-0.7267681
10	0x3f25d63e	0.6478003
11	0x3d79639a	0.060886003
12	0xbed020f9	-0.40650156
13	0xbede010f	-0.43360183
14	0x3f57e386	0.8433155
15	0x3d36bf38	0.044615954
16	0x3e43c7e8	0.19119227
17	0x3ea667d7	0.325011
18	0xbe9aa433	-0.302034
19	0xbc43f05b	-0.011959161
20	0x3c71809f	0.014740138
21	0x3c58d295	0.0132338
22	0x3dc36558	0.09540814
23	0x3bf42891	0.007451125
24	0xbe72929a	-0.23688737
25	0xbe5026ef	-0.20327352
26	0x3edd635a	0.43239862
27	0xbcf50e9f	-0.029914198
28	0x3eb51c6b	0.35373244
29	0xbeacdbb1	-0.3376136
30	0xbd9aef42	-0.07565166
31	0x3d652185	0.05594017

encoder.encoder.weight_hh_l0 f4 [8, 2]
0	0x3f2a4834	0.66516423
1	0x3f801b07	1.0008248
2	0x3ebefeb4	0.37303698
3	0x3cd6a825	0.026203224
4	0xbe55663d	-0.20839782
5	0x3debeafd	0.1151943
6	0x3e6a5cc2	0.22886947
7	0xbf3be606	-0.7339786
8	0x3dae96c6	0.085248515
9	0x3efcff4f	0.49413535
10	0xbddfe079	-0.10931487
11	0xbea0d972	-0.31415898
12	0x3e60be32	0.21947554
13	0xbec3a82f	-0.3821425
14	0x3eb9e435	0.3630692
15	0xbea849c0	-0.32868767

encoder.encoder.bias_ih_l0 f4 [8]
0	0x3f12dae7	0.5736527
1	0x3f78b20a	0.97146666
2	0xbfb22595	-1.3917719
3	0xbf4716a3	-0.77768916
4	0xbf5bc79e	-0.85851467
5	0x3c037f66	0.00802598
6	0x3f5bfb22	0.85930073
7	0x3f2b2d14	0.6686566

encoder.encoder.bias_hh_l0 f4 [8]
0	0x3f5aa915	0.8541425
1	0x3fbad82d	1.4597222
2	0xbf15535f	-0.5833034
3	0xbeae1a48	-0.34004426
4	0xbf9a4b2d	-1.2054192
5	0x3f4aa0f8	0.7915187
6	0xbd633501	-0.05547047
7	0x3f794afa	0.9738003

decoder.decoder.weight_ih_l0 f4 [16, 2]
0	0xc0056f5e	-2.0849223
1	0x403b2c0e	2.924564
2	0x40a466a0	5.1375275
3	0x3e18e770	0.14932036
4	0x403f9c55	2.9939167
5	0x3fe3fa03	1.7810673
6	0x3e21b927	0.15793286
7	0x3f47ad64	0.7799895
8	0xbf96b9a2	-1.1775401
9	0xbfd2b85f	-1.6462516
10	0xbf4674ab	-0.7752177
11	0x3fbe80b2	1.4883025
12	0xbf28e567	-0.6597504
13	0x3f0f1ff0	0.5590811
14	0x40228521	2.5393755
15	0xbf9a1f28	-1.2040758
16	0xbfe814b9	-1.8131324
17	0xbf71a504	-0.9439242
18	0x3f771ff4	0.9653313
19	0x404aed6f	3.1707418
20	0xbfee130c	-1.8599563
21	0xc02d5816	-2.7085013
22	0x3fa429e0	1.2825279
23	0x4035f097	2.8428094
24	0x40383223	2.87806
25	0xbef11118	-0.47083354
26	0xc00aa7fe	-2.1665034
27	0x408948e4	4.290148
28	0xbfdaef55	-1.7104288
29	0xbe1c9e8f	-0.1529486
30	0xc003c525	-2.0589077
31	0x3ecc6f4f	0.39928672

decoder.decoder.weight_hh_l0 f4 [16, 4]
0	0x3e971ecc	0.29515684
1	0x402bb212	2.6827435
2	0x3f38fe79	0.72263294
3	0xc03fdddd	-2.9979165
4	0x40a61e0e	5.191169
5	0x401c3b7e	2.441131
6	0xbf655dd5	-0.895963
7	0xbfb25175	-1.3931109
8	0x3fcdf8ae	1.6091516
9	0x3fb782f9	1.4336845
10	0xc067f7cf	-3.6245
11	0x3eb27e5c	0.3486203
12	0x3fbd3e88	1.4784708
13	0xbf927021	-1.1440469
14	0x40e24577	7.0709796
15	0xbf01588f	-0.50525755
16	0xbd664f4c	-0.056227967
17	0x3de6fcc9	0.11278684
18	0x3ddf7397	0.10910719
19	0xbdaceeea	-0.08444007
20	0xc01cc59a	-2.4495606
21	0xbf07ab52	-0.5299579
22	0xc092b505	-4.584597
23	0xbeb0d1d6	-0.34535092
24	0xbee8ca7c	-0.45466983
25	0xbf87c2f4	-1.060637
26	0x3e2be70d	0.16787358
27	0x3fa2feb3	1.2733978
28	0x40282e38	2.627821
29	0x3d6c18a4	0.057640687
30	0x3fbf6536	1.4952762
31	0x3ee63a1c	0.4496621
32	0xbe9f20e5	-0.31079784
33	0x3ce90de5	0.028449008
34	0xbd36e2a3	-0.04464973
35	0x3ad9e146	0.0016622923
36	0x3d7bb583	0.0614524
37	0xbdbcbfff	-0.09216308
38	0xbf382b07	-0.71940655
39	0xbef057f1	-0.46942094
40	0xbef66ed3	-0.48131427
41	0x3dce74f6	0.10080902
42	0xbf4351f1	-0.7629691
43	0x3e5861bc	0.21131033
44	0xbe8e709c	-0.2782029
45	0xbef55932	-0.47919613
46	0x3e7d4397	0.24732815
47	0xbdb1be85	-0.08678917
48	0xc08697a4	-4.206011
49	0x406da9dd	3.7134926
50	0xbf21e1d4	-0.6323521
51	0xbf99a77e	-1.200424
52	0xbe1c6be3	-0.1527553
53	0x400defe6	2.2177672
54	0x3f90fb46	1.1326683
55	0xc0335aeb	-2.8024242
56	0x3f70e98c	0.94106364
57	0x404817a5	3.1264431
58	0xbe4b39c2	-0.19846252
59	0xc0845428	-4.135273
60	0xc02eb104	-2.7295542
61	0x409165d0	4.5436783
62	0xc05235ad	-3.284526
63	0xbfbd502a	-1.4790089

decoder.decoder.bias_ih_l0 f4 [16]
0	0x40b08e96	5.5174055
1	0x3ff13940	1.8845596
2	0x3ef60e55	0.4805781
3	0x3f99386c	1.1970344
4	0xbe8f421a	-0.2798012
5	0xbf7e2c18	-0.9928603
6	0xbf06b291	-0.5261622
7	0x3edf0008	0.4355471
8	0xbe4ccb8f	-0.19999526
9	0xbede5e67	-0.43431398
10	0x3e13efa7	0.14446889
11	0xbf4407f5	-0.7657464
12	0x3fee3a1b	1.8611482
13	0x40c2c137	6.086086
14	0xbf032fd1	-0.5124484
15	0x3fb2f278	1.3980246

decoder.decoder.bias_hh_l0 f4 [16]
0	0x40ac663f	5.387481
1	0x3fc11e50	1.5087376
2	0x3f02bfdc	0.51074004
3	0x3fdc8b72	1.7230055
4	0xbf09b3ce	-0.53789985
5	0xbf17df68	-0.59325266
6	0xbf4e0c3b	-0.8048741
7	0x3f17165e	0.59018505
8	0xbe451871	-0.19247605
9	0x3e92ab1d	0.28646174
10	0x3e45b7eb	0.1930844
11	0xbeaf563a	-0.34245473
12	0x40203120	2.5029984
13	0x40b122f4	5.5355167
14	0x3d8bee32	0.068325415
15	0x3fe31824	1.7741742

decoder.out_layer.weight f4 [4, 4]
0	0xc096351b	-4.6939826
1	0x3f8ce375	1.1006914
2	0xc0b81516	-5.752574
3	0x3fd6d59c	1.6783938
4	0xc0edb37b	-7.428159
5	0x40286df2	2.6317105
6	0x3fd6422f	1.6738948
7	0x40090ad2	2.1412854
8	0x3f187622	0.59555256
9	0x407c14f8	3.9387798
10	0xc06f4479	-3.7385542
11	0x40a4e8ff	5.153442
12	0xc053a405	-3.306886
13	0x409db3a3	4.9281783
14	0x4066537d	3.5988457
15	0x409e4413	4.94581

decoder.out_layer.bias f4 [4]
0	0xbdc1cc9d	-0.09462855
1	0xbf096bda	-0.53680193
2	0xbe7ce541	-0.24696828
3	0xbf2442ac	-0.64164233
